chatbot/dataset/data.pth (torch, 21098 bytes, 6 tensors)

l1.weight f4 [8, 261]
00000000: 7e00 b7bf e78c 373f ac06 503f ecaf e13f
00000010: 0db2 89bd 2dec 92bd 7139 dfbe bfe4 1dbe
00000020: e2c6 f6be ac0a 1c3f da92 a03e 258f b5bd
00000030: fd5f 9d3e 6405 38bf 8870 babe cc46 8e3f
00000040: c72c 463f 8c6c 153e 321e b53f fbbf 47bf
00000050: 37a4 943f 1667 453f 0b0f f8bd c640 f23f
00000060: 0d06 913d 301b 0fbe 16f4 243f 94e2 75be
00000070: 0668 6bbe 9c98 0240 e179 90bd 34c8 1f3e
00000080: d2cc 65bf 31c3 4a3e 95d2 2240 cfdf 7e3e
00000090: 1683 5ebe a312 0740 07ff 663f dd72 f0be
000000a0: 4d7d e53e d1bd ce3e f8b4 1640 a4be c13c
000000b0: ff1a 1a40 6e06 1940 9bde 3a40 27fd e7be
000000c0: 245b fe3f 0c32 5dbf 57f2 1040 bec2 1abf
000000d0: a52d 053f f076 be3f 1363 cc3e e732 2940
000000e0: f627 1f3f f998 313f 547f babd 6d24 40bf
000000f0: ad62 9f3e 848d f1bf f735 aabe 72d6 05bf
00000100: 3790 703f 6cef 0e40 0aaf cd3f 06db 063d
00000110: fc1c da3f 8e86 4dbe f4db 0240 6776 c93f
00000120: 621c f23f bda0 8e3f bbd7 91bd 41c7 123f
00000130: 2442 153f 6d1a 3e3d a5c3 41be f1a7 0940
00000140: 9749 a03f e100 893f 92e0 ad3f dd19 2b40
00000150: 6e71 b5bf fbf3 873f 6823 063f 817a b63d
00000160: e702 0d40 7336 853e c327 4b3e ab73 d43f
00000170: 683b f33e efea 3b3c cefa dc3f 0965 77bf
00000180: 5010 673f b336 f2bd 2b3f f4bd ba62 b63d
00000190: 0300 223f 44e4 3b3f d39d 733f 9e44 423f
000001a0: e997 1440 58c8 0c40 8b8d 22bf 6ea6 56be
000001b0: 0709 1240 5a46 28c0 0645 88bc b76e dd3f
000001c0: e14a 18be 57d9 22bf 3d71 8b3f 701e c03f
000001d0: 5bdf 22bf 412b 22bf 6027 82bf 0b91 d6bf
000001e0: 6851 4140 4697 22bf 18e5 aebf 4b6e 913f
000001f0: 84c8 d9be 4412 4e3d 6191 f0bd a0c0 2f40
00000200: 80f2 803e a8d1 843f 667e 273f eb36 1a3f
00000210: f9c7 0840 7df1 b7bf 3f4e 8b3f 83b2 e9bd
00000220: b3e5 a9bd ed37 47be ceeb 71bd 484c 50be
00000230: b21d 61be 7bea 1040 8b29 8f3f 4f6f ca3e
00000240: 5d3f b63f a2bf 5c3f 65c7 b33f dcc4 973f
00000250: 83d8 233d 7bb1 6abe 53e3 14be ce8c 4f3f
00000260: 046a babf 0a39 2b40 b685 80be d364 983e
00000270: 4591 983f 7ddc a9bf c786 b03f 3235 b63f
00000280: 6c4c 3bbf 3b54 923b 72dd 373e fd8b 183e
00000290: f8c2 00c0 8193 d03f b15b 00bf ae2b 873e
000002a0: ab0c 633f 0a4f b03f 9448 86bf f36c 6dbe
000002b0: f36c 3740 9e2c f73e 550e bfbe b595 c4bf
000002c0: 2b98 743e 205a e6be a431 223f 7869 43bf
000002d0: 3013 c6bf 5115 723d 3ff9 f23e e59b 523f
000002e0: acdb 0c40 50a2 02bd d112 4140 074e d83f
000002f0: 024e 953f 8986 8a3f a22e 033f eb44 f73e
00000300: 839b 82bd d682 1240 572e 263f c159 0b40
00000310: 7a24 1f3f ed48 083f e293 9b3f bd11 2040
00000320: cdbe 62bd 95b3 62be 15a7 283d 2c85 acbd
00000330: 3a2a 4fbf 0ef4 3740 69dd 05c0 fb19 7440
00000340: 73af 2040 e876 df3f 3576 403f 8a3e df3f
00000350: 2c45 2040 219d ce3f 2ebf e4bd 0762 b73e
00000360: 5127 f73e d61e 6f3f e65b 823e 7a48 553f
00000370: c65e 3a40 9e7e 3240 34a6 523e 8608 9f3f
00000380: 10e1 273f 701f 8dbe f572 9dbf 9084 263f
00000390: edb5 51bf aae3 b03f 1da1 853f e708 d8be
000003a0: a4c1 0bc0 aa50 de3e 76ab 8e3f 157f 5ebf
000003b0: b749 9640 35c6 42be 5c21 86bf d1e4 4340
000003c0: f3ef bebf b1c3 d83f 4abd 60be 7a0e 8ebf
000003d0: 5bb8 113e 6654 9a3e fd3d b1bd 80f0 323f
000003e0: 0afc 98be 9ac9 fdbe 803a 67bf f322 be3b
000003f0: b546 7b3f 3aa8 ac3f 4995 7fbe b4d7 38be
-1.4297025 0.71699375 0.8126018 1.7631812 -0.067234136 -0.07173953 -0.43598512 -0.15419291
-0.4819861 0.60953784 0.3136204 -0.08865193 0.30737296 -0.71883225 -0.3641398 1.1115355
0.77412075 0.14592189 1.414984 -0.78027314 1.1612614 0.7711042 -0.12112244 1.8926017
0.07081232 -0.13975215 0.64434946 -0.24012214 -0.229889 2.0405645 -0.070544966 0.15603715
-0.89765656 0.19801022 2.544103 0.24890064 -0.21729693 2.1105125 0.9023289 -0.46962634
0.4482216 0.40379193 2.3547955 0.023650475 2.4078977 2.3910174 2.9198368 -0.45310327
1.9871564 -0.8640449 2.2647913 -0.60453403 0.52022773 1.4880047 0.39919338 2.6437318
0.6217035 0.6937404 -0.09106317 -0.7505558 0.3112997 -1.8871312 -0.33244297 -0.5228034
0.93970054 2.2333632 1.6069043 0.03292372 1.7040095 -0.2007086 2.0446749 1.5739259
1.8914912 1.1142803 -0.071212254 0.5733529 0.5830405 0.04641192 -0.18922289 2.1508753
1.2522458 1.0703393 1.3584158 2.6734536 -1.4175241 1.0621332 0.52397776 0.089100845
2.2033021 0.26018104 0.19839387 1.6597799 0.4750626 0.011469587 1.726404 -0.9663854
0.90259266 -0.11826839 -0.11926111 0.08905549 0.6328127 0.7339518 0.95162696 0.7588595
2.3217719 2.199728 -0.6349723 -0.20961925 2.281801 -2.629294 -0.016634475 1.7299412
-0.14872314 -0.63612884 1.0893933 1.5009289 -0.63622063 -0.6334725 -1.0168266 -1.6763014
3.0205936 -0.63512075 -1.3663664 1.1361784 -0.42535794 0.05031039 -0.11746479 2.746132
0.25185013 1.0376482 0.65427244 0.6024005 2.1372054 -1.4370571 1.0883254 -0.114110015
-0.08295765 -0.19454928 -0.05906277 -0.20341599 -0.21983984 2.2643116 1.1184553 0.39538047
1.4238087 0.8622991 1.4045225 1.1856952 0.040001404 -0.22919266 -0.14539842 0.81074226
-1.4563603 2.6753564 -0.25102013 0.29764423 1.1919333 -1.3270413 1.3791131 1.4234984
-0.73163486 0.0044656075 0.17955568 0.14897151 -2.0119 1.6295015 -0.5013991 0.26400512
0.88691205 1.3774121 -1.0490899 -0.23186092 2.8660247 0.48276228 -0.37315622 -1.5358187
0.23886172 -0.44990635 0.63356996 -0.7633281 -1.5474606 0.05910236 0.47455785 0.82269126
2.2009077 -0.031893075 3.0167735 1.6898812 1.1664431 1.0822307 0.5124303 0.48294768
-0.06377318 2.2892356 0.6491446 2.1773531 0.62165034 0.53236276 1.2154505 2.5010827
-0.055357743 -0.22138818 0.041174967 -0.08423838 -0.8092381 2.874271 -2.0916388 3.8140857
2.5107086 1.7458162 0.7518037 1.744096 2.504222 1.6141702 -0.11169277 0.35816976
0.48272184 0.93406427 0.25460738 0.83313715 2.9120345 2.788978 0.20571214 1.2424476
0.65577793 -0.27563047 -1.2300707 0.65046024 -0.8191822 1.3819478 1.0439793 -0.42194292
-2.183694 0.43420917 1.1146076 -0.8691266 4.6964984 -0.19020922 -1.047893 3.0608408
-1.4916977 1.693472 -0.21947208 -1.1098168 0.14230482 0.30142516 -0.086544015 0.69898224
-0.2987979 -0.49567872 -0.9032364 0.005802506 0.98154765 1.3488839 -0.24959292 -0.18051034

l1.bias f4 [8]
00000000: 2c48 153f 2af7 633f 5ae3 923f 3b74 733f
00000010: 81f6 7c3f 3ecf 633f 51ac 7d3f ece6 e23e
0.5831325 0.8904902 1.1475632 0.9509923 0.98813635 0.889881 0.9909106 0.44316804

l2.weight f4 [8, 8]
00000000: 763e a3bf f3ca e1bd 684e 8b3f 08c3 47bf
00000010: e400 fa3f c74b 1d3f 07f3 2640 a72e d1bf
00000020: f61e 8bbf 7e3b 3f40 6e2d a33f 479b 993e
00000030: 946d 81bf 57b2 143e 5f38 593f f51b 31bf
00000040: 4056 2340 d7e6 823e 18f9 a23f 2a3e 233f
00000050: 4f6c f5be 06d1 b53f 92a4 ddbe 3928 1dc0
00000060: ef1f b2bf 23a9 b43f 1b65 98bf 84e4 1040
00000070: 3fc5 a93f 192a c83e fe2a 2e3e 7afb 983f
00000080: 6217 803f 24ca 953f 83cc c6be 88ec ee3e
00000090: 25d0 9d3f 84e9 38c0 b299 d63f 8d90 7b3e
000000a0: 45fa d53f 318e 80bf 25f0 34be 2b59 db3d
000000b0: d41d 1fbf c796 a43f 4ee7 1940 6213 1540
000000c0: 9fbf d4bd 3935 0a3f f20c 0240 da35 0a3f
000000d0: a6ba 1bbf 4c81 80bf e86a 1cbf d4e9 aa3f
000000e0: 3892 4d3f 07c9 50bf 282a da3e d7a0 d43f
000000f0: a913 0540 1cc2 31bf cea2 eabf b796 b9be
-1.2753437 -0.110250376 1.0883303 -0.7803197 1.9531522 0.6144375 2.6085832 -1.6342362
-1.0868824 2.988006 1.2748239 0.3000128 -1.0111566 0.14521156 0.8485164 -0.69183284
2.5521393 0.25566742 1.2732267 0.6376673 -0.47934195 1.4204414 -0.4328962 -2.45558
-1.3915995 1.4114116 -1.1905855 2.2639475 1.326332 0.39094618 0.17008588 1.1951745
1.0007136 1.1702313 -0.38827905 0.46664834 1.2329146 -2.8892527 1.6765654 0.2456686
1.6717001 -1.0043393 -0.17669733 0.10710367 -0.6215489 1.2858514 2.4047427 2.329308
-0.10388111 0.5398746 2.03204 0.5398842 -0.6083168 -1.0039458 -0.61100626 1.3352609
0.8030124 -0.81556743 0.42610288 1.6611584 2.079325 -0.6943681 -1.8330934 -0.362478

l2.bias f4 [8]
00000000: 0971 753f 5c71 313f dd0e 333f 036b a63e
00000010: 4a04 02bd 38d0 8f3e f34d c63d cfe9 273f
0.958756 0.693136 0.69944555 0.32503518 -0.03174237 0.28088546 0.096828364 0.6559114

l3.weight f4 [112, 8]
00000000: 893d e0bf deb1 18be 0f1d 1abe d698 d33e
00000010: 3b49 efbf c88b f6bf 8c8c 2b3e d821 043f
00000020: 985c 2dc0 8b06 e23e 78b0 50bf 07c1 e53e
00000030: 787c 003f a0a7 d0bf 2650 ccbe 0024 96bd
00000040: 0708 45bf bebf 1d3f 55fa 203f 092d 72c0
00000050: 62d8 46c0 8868 fdbf d7e6 e4be 45f1 83be
00000060: d4db 6abd eaf2 643e 614f ccbe 7e83 50c0
00000070: 1ae6 bb3e 0513 c8bf ff99 2bbd 6e0e dbbf
00000080: b04c c9be 93a1 cfbf 644c 22be 45a9 29c0
00000090: af67 9d3f d7a0 b1bf 174d fbbe b443 abbd
000000a0: 753f c53e b848 b03f 3a8e 55bc 4140 5abf
000000b0: 52f1 06c0 c662 e6bf d15c 98bf b2f4 08c0
000000c0: 3f6d 323e 85ab 853e fc01 8ac0 da30 e53e
000000d0: 1e5c c53e 5de6 a3bf b851 333e 9930 e9bd
000000e0: 995e e1be 5bb3 3dbf 9e28 3bbe acf8 8ac0
000000f0: 50ba 73c0 4f5e 84bf ce52 5e3e 1b88 9b3e
00000100: a59d 39c0 e43f 27c0 577a a43d f32d 32bd
00000110: 533e 9f3f f343 8dbf 2c35 29bf 2a8f 77c0
00000120: eee4 c33e 89da ccbe 658f cd3e 1ccb 1ec0
00000130: 9695 0fbf 1baa c6be fcf8 b8c0 29be f1bf
00000140: ef9d 86c0 1a08 45c0 6aae b93e 9904 f2be
00000150: 05db 6fc0 fd25 53bf bbaf 69c0 b026 8a3f
00000160: 7acc 00c0 acf4 a3c0 7967 e53e 71a0 b3be
00000170: 228b acc0 25d5 eabe fe8e b2c0 9da2 51c0
00000180: 9e5e 7d3e 2040 9ebe 75e5 1f3e 8a1c 25c0
00000190: ca13 29bf 7e1e 3dbe de00 c4c0 32b2 d7bf
000001a0: 69d2 173f 6d1b bfc0 4e57 acc0 00f6 933e
000001b0: 56dc 7a3f e7bf 6abf 5fa9 bec0 4db6 153f
000001c0: eb13 e5bf 8b90 b0c0 8235 8f3e cae0 9abf
000001d0: 8fc8 f43e 837e fcbe 743c 8dc0 b0e5 81bf
000001e0: 5b62 84c0 5ebd 9ec0 fa56 62c0 7a2f d4bf
000001f0: 79e7 0ebe 61f8 efbe 52c0 043f 7c37 e2bf
00000200: b740 643f 7db7 c1c0 8d30 89bf 8894 9ebe
00000210: b744 12be 3801 b1bf 9163 9ac0 08e2 1e3f
00000220: 5304 91c0 8269 79c0 993a 293f 1365 03c0
00000230: 01aa dbbf a8f9 e5be 4a61 5ac0 4379 12bf
00000240: ec15 5b3e 4f3c 70c0 3b34 253f 7a7f 74bf
00000250: 66b3 e2bf 13a8 17c0 f4de 5ac0 e49c 2c3f
00000260: 953b 49bf e9e2 2cc0 4799 753e 2240 a3bf
00000270: ca98 603f 1a9a c8bf a26c 65c0 dd53 143f
00000280: 1283 e5bf d5db 9fc0 dd1a b5bd 3a24 b6bf
00000290: 4289 9e3e 3638 5abf 0de6 d83e 08c1 c5bf
000002a0: e2a6 79c0 df15 a3c0 b6d8 4bbf eb5f 1d3f
000002b0: 8c91 64c0 190e 55bf e422 c53d b2f0 3c3f
000002c0: 6fed 833d 1baf fdbf 3d6a febe 621a 95bf
000002d0: 2ed2 fd3e fb26 82bf 5824 3b3e fb6f 45bf
000002e0: ec88 bfbf 4c00 8bbf f4f9 573f 8c50 9bbf
000002f0: 1f10 16c0 79e6 b0bf c036 31c0 f7c8 c23e
00000300: 007a 02c0 f238 8ec0 3ea6 3b3f 1d0d 8fc0
00000310: a4bd 9bbf 4870 85bc 21c3 84c0 8826 b0c0
00000320: f0bc c8bf 88c5 9abf 9573 293f bae6 44bf
00000330: 2e23 2fbf edc3 84bf 7efb 80bf cd2a f1bf
00000340: b034 13c0 0da9 8dc0 9093 1cbe fea2 03c0
00000350: 8d72 803d 5869 85bf 2768 3d3e e62f 103f
00000360: 2311 11bf 66b9 99c0 849a 24c0 6888 85be
00000370: bf5f 1040 da92 a4bf 33c3 d9bf a319 d4bf
00000380: 5c3b 81bf a557 a8c0 8157 cf3e 8d5a 59bf
00000390: c163 a2be c26f 85bf 7db2 9ebf 40ff 37bc
000003a0: 3420 7dbf b4aa ddbe 01fb 98be 3752 34c0
000003b0: d763 0a3f c519 02c0 63fc b83e 2ef5 053f
000003c0: c16f 62c0 3288 6cbf c9c1 003f f3ed 48bf
000003d0: a21f 6bc0 0f9b bbbf 88d8 cbbe 823e 393f
000003e0: d92f 9abf 3a08 12bf f3ba b1bf 735d c3bf
000003f0: 5633 363f 944a a0bf 9025 3e3f b902 2ebc
-1.7518779 -0.14911601 -0.15050147 0.41327542 -1.8694223 -1.9261408 0.16752833 0.5161414
-2.7087765 0.44145617 -0.8151927 0.4487383 0.50189924 -1.6301155 -0.39904898 -0.07331085
-0.76965374 0.616207 0.62881976 -3.7839987 -3.106957 -1.9797525 -0.44707367 -0.25770012
-0.05733855 0.2235829 -0.3990431 -3.2580256 0.3669899 -1.5630804 -0.04189491 -1.7113779
-0.3931632 -1.6221184 -0.15849453 -2.6509564 1.2297267 -1.387721 -0.49082252 -0.08362523
0.38524976 1.3772192 -0.013034398 -0.85254294 -2.108479 -1.7998893 -1.1903325 -2.139935
0.17424487 0.26107422 -4.312742 0.44763833 0.38546842 -1.2804676 0.17511642 -0.113862224
-0.44017485 -0.741018 -0.18277213 -4.3428555 -3.8082466 -1.0341281 0.21711275 0.30377278
-2.9002469 -2.6132746 0.08031147 -0.04350085 1.2440895 -1.1036361 -0.6609676 -3.868113
0.38260597 -0.4001048 0.40148464 -2.4811468 -0.56087625 -0.38801655 -5.7803936 -1.8886157
-4.206779 -3.0786195 0.3626588 -0.47269133 -3.747743 -0.8247984 -3.6513507 1.0793056
-2.0124803 -5.123617 0.44805506 -0.35083345 -5.391984 -0.4586574 -5.579955 -3.2755501
0.24743125 -0.30908298 0.15614875 -2.579867 -0.6604582 -0.18468663 -6.125106 -1.6851256
0.59305435 -5.972098 -5.3856573 0.2889862 0.97992456 -0.9169907 -5.958175 0.58481294
-1.7896703 -5.5176444 0.2797051 -1.209985 0.47809264 -0.4931527 -4.4136295 -1.014822
-4.1370063 -4.960616 -3.5365586 -1.6576989 -0.13955487 -0.46869186 0.5185596 -1.7673182
0.89161247 -6.0536485 -1.0717942 -0.30972695 -0.14284025 -1.3828497 -4.824654 0.62063646
-4.531778 -3.8970647 0.6610504 -2.053044 -1.7161256 -0.44917035 -3.412188 -0.5721628
0.21395081 -3.753681 0.6453282 -0.95507014 -1.7710998 -2.3696334 -3.419858 0.67426896
-0.7860654 -2.7013495 0.23984252 -1.2753947 0.8773314 -1.5672028 -3.5847554 0.57940465
-1.7930624 -4.995585 -0.088430144 -1.4229805 0.30964094 -0.8524202 0.42363015 -1.5449533
-3.9008107 -5.09642 -0.7962755 0.61474484 -3.5713835 -0.83224636 0.096257955 0.7380477
0.06441771 -1.9819063 -0.49690428 -1.1648676 0.49574417 -1.0168146 0.18275583 -0.77123994
-1.496366 -1.0859466 0.84365773 -1.2133956 -2.344734 -1.3820335 -2.7689667 0.3804395
-2.0386963 -4.4444513 0.7330054 -4.4703507 -1.2167249 -0.016288891 -4.1488194 -5.5047035
-1.5682659 -1.2091532 0.6619199 -0.7691456 -0.68413055 -1.0372292 -1.0076749 -1.8841187
-2.3000908 -4.426886 -0.15290666 -2.0568233 0.06271849 -1.0422773 0.18496762 0.5632309
-0.56666774 -4.8038816 -2.571931 -0.26080632 2.2558439 -1.2857316 -1.7012695 -1.6570324
-1.009624 -5.260699 0.40496448 -0.84903795 -0.3171673 -1.0424731 -1.239822 -0.01123029
-0.98877263 -0.432943 -0.29879 -2.817518 0.54058594 -2.0328228 0.36130056 0.5232724
-3.538071 -0.9239532 0.5029569 -0.7848808 -3.6738057 -1.4656695 -0.39813638 0.72361004
-1.2045852 -0.570438 -1.3885177 -1.5262893 0.7117208 -1.252276 0.74276066 -0.010620766

l3.bias f4 [112]
00000000: 7175 80be 912d 8abf 8ab7 783e 3b94 3cbf
00000010: d689 bbbf 59ba 44bf 11bb 0dbd 79bd 70bf
00000020: 4378 a0bf c689 fbbd bd65 febe 3df1 b2bf
00000030: 43f2 ec3d 0fc2 02c0 3098 0bc0 c762 83bf
00000040: 1f1f b6bf 7b64 34bf 2a4c 36bf e095 fabe
00000050: 8f14 c7bf 2654 47bf 2276 37c0 3ba1 e1bd
00000060: d53b 82bf 6b28 05c0 b9f2 efbe 3cdd e0bf
00000070: 7c4f ccbf b10f 1c3e af07 afbc 65af f8bf
00000080: 3151 c93f 6e2e e4bf d000 f0be 2974 313f
00000090: 636f dfbd bd07 a3bf c62a d0bf ab65 8ebf
000000a0: 8a4c 1ebf 9d95 d1bd 3dab 67be 0622 16c0
000000b0: de3b d7bf a355 12bf f713 81bf a5de c1bf
000000c0: 6b19 c7bf 5fc7 dcbf b453 93bf 5a76 a33c
000000d0: c3f6 84be 459d 39bf 0f50 b3bf f8ba 45bf
000000e0: a2d0 dabe fd3c a7bf be53 42bf d654 04c0
000000f0: fd99 bfbe d67b 96be 8c17 cfbf 2f6e c4bd
00000100: 6909 0ebf 8929 bfbe e885 4ebf 83f7 21bf
00000110: 7589 28be edd8 bbbf e378 0fbe a10c 8fbf
00000120: 85b0 8cbf 1498 27be a6c4 ea3c 51c6 0cc0
00000130: ae85 dabf c1ec b8bf 78fe f4bf 2472 eabf
00000140: 8bf9 99bf 381c 9ebf 3b71 bbbe 4ab4 a8bf
00000150: 81ce 85bf 2286 dbbf 9818 a2be cb0e 9fbf
00000160: d0c2 18be fe06 a0be 387b d6bf 39be 05c0
00000170: 47fe 86bf dc48 9ebf 603f e4be 18aa 2fbf
00000180: 4b7a d3bf c76a fe3c e876 0ec0 ea42 0fbe
00000190: 6b48 a9be 6cf1 4abf 50c4 f63e 3aeb ec3c
000001a0: 0074 5c3f 0dc4 c5bf 8f59 a63d 31a6 01bf
000001b0: cfc6 2f3e c6bb 873f 7f73 33bf fafd 96be
-0.250896 -1.0795156 0.24288765 -0.7366368 -1.4651439 -0.76846844 -0.03460223 -0.9403911
-1.2536701 -0.122821376 -0.49686995 -1.397987 0.11569645 -2.0430944 -2.1811638 -1.026452
-1.4228247 -0.7046582 -0.7120997 -0.4894247 -1.5553149 -0.77862775 -2.8665853 -0.110170804
-1.0174509 -2.080592 -0.4686487 -1.7567515 -1.5961757 0.15240361 -0.021365969 -1.9428526
1.5727903 -1.7826669 -0.4687562 0.6931787 -0.10909917 -1.2736737 -1.6263053 -1.1124777
-0.6183554 -0.102336146 -0.22623916 -2.3458266 -1.6815145 -0.5716192 -1.0084218 -1.5146071
-1.5554632 -1.7248343 -1.1509919 0.019953895 -0.25969514 -0.725056 -1.4008807 -0.77238417
-0.427373 -1.3065487 -0.7590903 -2.067678 -0.3742217 -0.29391354 -1.6179061 -0.09591328
-0.5548311 -0.37336376 -0.80673075 -0.632683 -0.16458686 -1.4675575 -0.14010958 -1.1175729
-1.099137 -0.16366607 0.028658222 -2.1996043 -1.7072046 -1.4447252 -1.9140158 -1.8316083
-1.202928 -1.2352362 -0.36609825 -1.318002 -1.0453645 -1.7150309 -0.3165939 -1.242639
-0.14918065 -0.31255335 -1.6756353 -2.0897353 -1.0546349 -1.2365985 -0.445796 -0.6861892
-1.6521696 0.031056775 -2.2260075 -0.1399037 -0.33063063 -0.7927463 0.4819665 0.028920759
0.861145 -1.5450455 0.08122551 -0.5064421 0.17165683 1.0604179 -0.7009811 -0.29490644
